…
_default_block(in_channels, out_channels, kernel_size, stride, padding):\n        return nn.Sequential(\n            nn.ConvTranspose2d(in_channels, out_channels, kernel_size, stride, padding, bias=False),\n            nn.BatchNorm2d(out_channels),\n            nn.ReLU(True)\n        )\n\n    def forward(self, x):\n        return self.body(x)\n    \n\"\"\"\nGenerator\n----------------------------------------------------------------\n        Layer (type)               Output Shape         Param #\n================================================================\n   ConvTranspose2d-1            [-1, 512, 4, 4]       1,048,576\n       BatchNorm2d-2            [-1, 512, 4, 4]           1,024\n              ReLU-3            [-1, 512, 4, 4]               0\n   ConvTranspose2d-4            [-1, 256, 8, 8]       2,097,152\n       BatchNorm2d-5            [-1, 256, 8, 8]             512\n              ReLU-6            [-1, 256, 8, 8]               0\n   ConvTranspose2d-7          [-1, 128, 16, 16]         524,288\n       BatchNorm2d-8          [-1, 128, 16, 16]             256\n              ReLU-9          [-1, 128, 16, 16]               0\n  ConvTranspose2d-10           [-1, 64, 32, 32]         131,072\n      BatchNorm2d-11           [-1, 64, 32, 32]             128\n             ReLU-12           [-1, 64, 32, 32]               0\n  ConvTranspose2d-13            [-1, 3, 64, 64]           3,075\n             Tanh-14            [-1, 3, 64, 64]               0\n================================================================\nTotal params: 3,806,083\nTrainable params: 3,806,083\nNon-trainable params: 0\n----------------------------------------------------------------\nInput size (MB): 0.00\nForward\/backward pass size (MB): 3.00\nParams size (MB): 14.52\nEstimated Total Size (MB): 17.52\n----------------------------------------------------------------\
…
ck(in_channels, out_channels, kernel_size, stride, padding):\n        return nn.Sequential(\n            nn.Conv2d(in_channels, out_channels, kernel_size, stride, padding, bias=False),\n            nn.BatchNorm2d(out_channels),\n            nn.LeakyReLU(0.2, inplace=True)\n        )\n\n    def forward(self, x):\n        return self.body(x)\n    \n\"\"\"\nDiscriminator\n----------------------------------------------------------------\n        Layer (type)               Output Shape         Param #\n================================================================\n            Conv2d-1           [-1, 64, 32, 32]           3,136\n         LeakyReLU-2           [-1, 64, 32, 32]               0\n            Conv2d-3          [-1, 128, 16, 16]         131,072\n       BatchNorm2d-4          [-1, 128, 16, 16]             256\n         LeakyReLU-5          [-1, 128, 16, 16]               0\n            Conv2d-6            [-1, 256, 8, 8]         524,288\n       BatchNorm2d-7            [-1, 256, 8, 8]             512\n         LeakyReLU-8            [-1, 256, 8, 8]               0\n            Conv2d-9            [-1, 512, 4, 4]       2,097,152\n      BatchNorm2d-10            [-1, 512, 4, 4]           1,024\n        LeakyReLU-11            [-1, 512, 4, 4]               0\n           Conv2d-12              [-1, 1, 1, 1]           8,193\n          Sigmoid-13              [-1, 1, 1, 1]               0\n================================================================\nTotal params: 2,765,633\nTrainable params: 2,765,633\nNon-trainable params: 0\n----------------------------------------------------------------\nInput size (MB): 0.05\nForward\/backward pass size (MB): 2.31\nParams size (MB): 10.55\nEstimated Total Size (MB): 12.91\n----------------------------------------------------------------\
…
