…
e of this kernel is the result of ensemble of 90 learners.\n\n|state|training data<br\/>(f1 macro avg)|test data<br\/>kaggle LB score|\n|:--|--:|--:|\n|this kernel|0.99801|0.99657|","113fb5dc":"## 1 : image converter\nThis model outputs feature values of images\n```\n__________________________________________________________________________________________________\nLayer (type)                    Output Shape         Param #     Connected to                     \n==================================================================================================\ninput_1 (InputLayer)            (None, 784)          0                                            \n__________________________________________________________________________________________________\nreshape_1 (Reshape)             (None, 28, 28, 1)    0           input_1[0][0]                    \n__________________________________________________________________________________________________\nconv2d_1 (Conv2D)               (None, 28, 28, 32)   832         reshape_1[0][0]                  \n__________________________________________________________________________________________________\nconv2d_2 (Conv2D)               (None, 28, 28, 32)   25632       conv2d_1[0][0]                   \n__________________________________________________________________________________________________\nmax_pooling2d_1 (MaxPooling2D)  (None, 14, 14, 32)   0           conv2d_2[0][0]                   \n__________________________________________________________________________________________________\nconv2d_3 (Conv2D)               (None, 14, 14, 64)   18496       max_pooling2d_1[0][0]            \n__________________________________________________________________________________________________\nconv2d_4 (Conv2D)               (None, 14, 14, 64)   36928       conv2d_3[0][0]                   \n__________________________________________________________________________________________________\nglobal_max_pooling2d_1 (GlobalM (None, 64)           0           conv2d_4[0][0]                   \n__________________________________________________________________________________________________\nglobal_average_pooling2d_1 (Glo (None, 64)           0           conv2d_4[0][0]                   \n__________________________________________________________________________________________________\nconcatenate_1 (Concatenate)     (None, 128)          0           global_max_pooling2d_1[0][0]     \n                                                                 global_average_pooling2d_1[0][0] \n__________________________________________________________________________________________________\nbatch_normalization_1 (BatchNor (None, 128)          512         concatenate_1[0][0]              \n==================================================================================================\nTotal params: 82,400\nTrainable params: 82,144\nNon-trainable params: 256\n__________________________________________________________________________________________________\n```","75cecdad":"# Result of the ensemble\nThe following is f1_score in the train
…
