…
print(tf.__version__)\n","7a897b34":"#### That saved model is on training dataset.\n\n#### We can test our model on testing dataset to see it's accuracy on UNSEEN DATASET.\n\n\n#####upadate, try, commit, git, think about what else","efe28fa5":"* This part is basically the starting point of kaggle\n","d6874c03":"24.12.19\nthis was the result...\nModel: \"sequential\"\n_________________________________________________________________\nLayer (type)                 Output Shape              Param #   \n=================================================================\nconv2d (Conv2D)              (None, 50, 50, 64)        4864      \n_________________________________________________________________\nmax_pooling2d (MaxPooling2D) (None, 25, 25, 64)        0         \n_________________________________________________________________\ndropout (Dropout)            (None, 25, 25, 64)        0         \n_________________________________________________________________\nconv2d_1 (Conv2D)            (None, 25, 25, 32)        18464     \n_________________________________________________________________\nmax_pooling2d_1 (MaxPooling2 (None, 12, 12, 32)        0         \n_________________________________________________________________\ndropout_1 (Dropout)          (None, 12, 12, 32)        0         \n_________________________________________________________________\nconv2d_2 (Conv2D)            (None, 12, 12, 16)        4624      \n_________________________________________________________________\nmax_pooling2d_2 (MaxPooling2 (None, 6, 6, 16)          0         \n_________________________________________________________________\ndropout_2 (Dropout)          (None, 6, 6, 16)          0         \n_________________________________________________________________\nflatten (Flatten)            (None, 576)               0         \n_________________________________________________________________\ndense (Dense)                (None, 256)               147712    \n_________________________________________________________________\ndropout_3 (Dropout)          (None, 256)               0         \n_________________________________________________________________\ndense_1 (Dense)              (None, 30)                7710      \n=================================================================\nTotal params: 183,374\nTrainable params: 183,374\nNon-trainable params: 0\n_________________________________________________________________\nTrain on 69600 samples\nEpoch 1\/12\n69600\/69600 [==============================] - 253s 4ms\/sample - loss: 2.3458 - accuracy: 0.3002\nEpoch 2\/12\n69600\/69600 [===================
…
