…
   \n        efectividad = balanced_accuracy_score(y_test, y_pred)\n    \n    \n    print(f'{epoca:3d}  |  Train loss: {np.mean(perdidas_train):.3f}    Valid loss: {perdida:.3f}    Valid accuracy: {efectividad:.2f}')","02f32533":"with torch.no_grad():\n    y_infer = modelo(X_infer).argmax(dim=1)\n\ndf_infer_id['Position'] = transformador_etiquetas.inverse_transform(y_infer)\n\n(\n    df_infer_id[['ID', 'Position']]\n    .rename(columns={'ID':'Id', 'Position':'Category'})\n    .to_csv('submit.csv', index=False)\n)","21b68121":"#os.listdir(\"\/kaggle\/working\")","c4c559a1":"OPCI\u00d3N 1)\n\n(0): Linear(in_features=52, out_features=8, bias=True) (1): Linear(in_features=8, out_features=64, bias=True) (2): ReLU() (3): Linear(in_features=64, out_features=32, bias=True) (4): ReLU() (5): Linear(in_features=32, out_features=4, bias=True)\n\n9 | Train loss: 0.273 Valid loss: 0.274 Valid accuracy: 0.89 Nota: agregando m\u00e1s EPOCS no mejora el \"Valid accuracy\"","b8054027":"OPCI\u00d3N 6) Cambio los pesos del balanceo: [0.61,1.03, 1.8, 0.55] y epocs\n\n5 | Train loss: 0.230 Valid loss: 0.217 Valid accuracy: 0.90","a562ddc1":"OPCI\u00d3N 2) Idem 1 pero agrego una capa de ReLU.\n\n(0): Linear(in_features=52, out_features=8, bias=True) (1): ReLU() (2): Linear(in_features=8, out_features=64, bias=True) (3): ReLU() (4): Linear(in_features=64, out_features=32, bias=True) (5): ReLU() (6): Linear(in_features=32, out_features=4, bias=True)\n\n14 | Train loss: 0.236 Valid loss: 0.249 Valid accuracy: 0.90","ba5e9172":"OPCI\u00d3N 3) Agrego dropout a 2 capas.\n\n(0): Linear(in_features=52, out_features=24, bias=True) (1): ReLU() (2): Dropout(p=0.2, inplace=False) (3): Linear(in_features=24, out_features=64, bias=True) (4): ReLU() (5): Dropout(p=0.4, inplace=False) (6): Linear(in_features=64, out_features=32, bias=True) (7): ReLU() (8): Linear(in_features=32, out_features=4, bias=True)\n\n13 | Train loss: 0.302 Valid loss: 0.265 Valid accuracy: 0.90","2fff3c73":"**Entrenar Modelo**","e9e0544a":"**Transformar variable objetivo**","a280758c":"**Modelo**","53d6e575":"**Separaci\u00f3n en Training y Test**","42f496ad":"OPCI\u00d3N 4): Cambio el learning rate a = 0.001 (LLega m\u00e1s rapido al valor 0.90)\n\n3 | Train loss: 0.273 Valid loss: 0.251 Valid accuracy: 0.90","cd6430b5":"OPCI\u00d3N 5) Agrego pesos para balancear el dataset: [0.9,1.0, 1.7, 0.55]\n\n(0): Linear(in_features=52, out_features=24, bias=True) (1): ReLU() (2): Dropout(p=0.2, inplace=False) (3): Linear(in_features=24, out_features=64, bias=True) (4): ReLU() (5): Dropout(p=0.4, inplace=False) (6): Linear(in_features=64, out_features=32, bias=True) (7): ReLU() (8): Linear(in_features=32, out_features=4, bias=True)\n\n14 | Train loss: 0.257 Valid loss: 0.224 Valid accuracy: 0.89","3e974443":"**Preprocessing**","f825e6b9":"**Inferir datos de prueba**","eca6e495":"**Selecci\u00f3n de modelos:**","95bb59ce":"**Transformar datasets**","660c7650":"**Instanciar Modelo**"}}