…
s the second or last group free to train, including multiple layers inside (this is why calling it 'group'), as you can see in `learn.summary()` output. How to read the table below, please see [model summary docs](https:\/\/docs.fast.ai\/callbacks.hooks.html#model_summary).\n\n```\n======================================================================\nLayer (type)         Output Shape         Param #    Trainable \n======================================================================\n...\n...\n...\n______________________________________________________________________\nConv2d               [1, 512, 4, 4]       2,359,296  False     \n______________________________________________________________________\nBatchNorm2d          [1, 512, 4, 4]       1,024      True      \n______________________________________________________________________\nAdaptiveAvgPool2d    [1, 512, 1, 1]       0          False     \n______________________________________________________________________\nAdaptiveMaxPool2d    [1, 512, 1, 1]       0          False     \n______________________________________________________________________\nFlatten              [1, 1024]            0          False     \n______________________________________________________________________\nBatchNorm1d          [1, 1024]            2,048      True      \n______________________________________________________________________\nDropout              [1, 1024]            0          False     \n______________________________________________________________________\nLinear               [1, 512]             524,800    True      \n______________________________________________________________________\nReLU                 [1, 512]             0          False     \n______________________________________________________________________\nBatchNorm1d          [1, 512]             1,024      True      \n______________________________________________________________________\nDropout              [1, 512]             0          False     \n______________________________________________________________________\nLinear               [1, 12]              6,156      True      \n______________________________________________________________________\n\nTotal params: 11,710,540\nTotal trainable params: 543,628\nTotal non-trainable params: 11,166,912\n```\n\n`freeze_to(int:n)` Docs:\n> Freeze layers up to layer group `n`.    \n\nHow to understand the use of integer `n`?     \nIf you experiment with the `learn` object from `learn.freeze` above, you will come
…
