…
 Flatten](https:\/\/pytorch.org\/docs\/stable\/generated\/torch.nn.Flatten.html)\n* [Warstwa Linear](https:\/\/pytorch.org\/docs\/stable\/generated\/torch.nn.Linear.html)\n* [Warstwa Relu](https:\/\/pytorch.org\/docs\/stable\/generated\/torch.nn.ReLU.html)\n* [Warstwa LogSoftmax](https:\/\/pytorch.org\/docs\/stable\/generated\/torch.nn.LogSoftmax.html)\n\n\n```\n----------------------------------------------------------------\n        Layer (type)               Output Shape         Param #\n================================================================\n           Flatten-1                  [-1, 784]               0\n            Linear-2                  [-1, 128]         100,480\n              ReLU-3                  [-1, 128]               0\n            Linear-4                   [-1, 64]           8,256\n              ReLU-5                   [-1, 64]               0\n            Linear-6                   [-1, 10]             650\n        LogSoftmax-7                   [-1, 10]               0\n================================================================\n```","1485fdfa":"## Czym s\u0105 obiekty [dataset](https:\/\/pytorch.org\/vision\/stable\/datasets.html) z modu\u0142u torchvision w pytorchu - szybkie wprowadzenie\n\nW zwi\u0105zku ze wzrostem zainteresowania uczeniem g\u0142\u0119bokim oraz w\u0142asnym typem zmiennych kt\u00f3ry u\u017cywany jest przez ka\u017cd\u0105 z biblio
…
