…
'Model.h5')\n# model.predict(coll)\n","dbb741d9":"Model: \"model\"\n__________________________________________________________________________________________________\nLayer (type)                    Output Shape         Param #     Connected to                     \n==================================================================================================\ninput_1 (InputLayer)            [(None, 27, 27, 1)]  0                                            \n__________________________________________________________________________________________________\nconv2d (Conv2D)                 (None, 25, 25, 60)   600         input_1[0][0]                    \n__________________________________________________________________________________________________\nbatch_normalization (BatchNorma (None, 25, 25, 60)   240         conv2d[0][0]                     \n__________________________________________________________________________________________________\nmax_pooling2d (MaxPooling2D)    (None, 12, 12, 60)   0           batch_normalization[0][0]        \n__________________________________________________________________________________________________\nconv2d_3 (Conv2D)               (None, 1, 25, 40)    3280        input_1[0][0]                    \n__________________________________________________________________________________________________\nconv2d_1 (Conv2D)               (None, 10, 10, 80)   43280       max_pooling2d[0][0]              \n__________________________________________________________________________________________________\nmax_pooling2d_3 (MaxPooling2D)  (None, 1, 8, 40)     0           conv2d_3[0][0]                   \n__________________________________________________________________________________________________\nmax_pooling2d_1 (MaxPooling2D)  (None, 2, 2, 80)     0           conv2d_1[0][0]                   \n__________________________________________________________________________________________________\nflatten_2 (Flatten)             (None, 320)          0           max_pooling2d_3[0][0]            \n__________________________________________________________________________________________________\nflatten (Flatten)               (None, 320)          0           max_pooling2d_1[0][0]            \n__________________________________________________________________________________________________\ndense_2 (Dense)                 (None, 500)          160500      flatten_2[0][0]                  \n__________________________________________________________________________________________________\ndense (Dense)                   (None, 500)          160500      flatten[0][0]                    \n__________________________________________________________________________________________________\nconcatenate (Concatenate)       (None, 1000)         0           dense_2[0][0]                    \n                                                                 dense[0][0]                      \n__________________________________________________________________________________________________\ndense_3 (Dense)                 (None, 12)           12012       concatenate[0][0]                \n==================================================================================================\nTotal params: 380,412\nTrainable params: 380,292\nNon-trainable params: 120\n__________________________________________________________________________________________________\nTrain on 236594 samples, validate on 75949 samples\nEpoch 1\/600\n236594\/236594 
…
