…
alse,\n    batch_size =32,\n    cross_validation_folds = 5,\n    learning_rate = 0.001,\n    activation = 'relu',\n    number_of_hidden_layers = 4,\n    optimizer = 'Adam',\n    epochs = 30\n)","eff5144b":"Train Model\nCross validation\n======================================\nIteration =  1\n======================================\nCreate Model\nModel: \"sequential\"\n_________________________________________________________________\nLayer (type)                 Output Shape              Param #   \n=================================================================\nfunctional_5 (Functional)    (None, 294912)            23587712  \n_________________________________________________________________\nbatch_normalization (BatchNo (None, 294912)            1179648   \n_________________________________________________________________\ndense (Dense)                (None, 512)               150995456 \n_________________________________________________________________\nactivation (Activation)      (None, 512)               0         \n_________________________________________________________________\ndropout (Dropout)            (None, 512)               0         \n_________________________________________________________________\nbatch_normalization_1 (Batch (None, 512)               2048      \n_________________________________________________________________\ndense_1 (Dense)              (None, 512)               262656    \n_________________________________________________________________\nactivation_1 (Activation)    (None, 512)               0         \n_________________________________________________________________\ndropout_1 (Dropout)          (None, 512)               0         \n_________________________________________________________________\nbatch_normalization_2 (Batch (None, 512)               2048      \n_________________________________________________________________\ndense_2 (Dense)              (None, 512)               262656    \n_________________________________________________________________\nactivation_2 (Activation)    (None, 512)               0         \n_________________________________________________________________\ndropout_2 (Dropout)          (None, 512)               0         \n_________________________________________________________________\nbatch_normalization_3 (Batch (None, 512)               2048      \n_________________________________________________________________\ndense_3 (Dense)              (None, 512)               262656    \n_________________________________________________________________\nactivation_3 (Activation)    (None, 512)               0         \n_________________________________________________________________\ndropout_3 (Dropout)          (None, 512)               0         \n_________________________________________________________________\nbatch_normalization_4 (Batch (None, 512)               2048      \n_________________________________________________________________\ndense_4 (Dense)              (None, 12)                6156      \n=================================================================\nTotal params: 176,565,132\nTrainable params: 152,383,500\nNon-trainable params: 24,181,632\n_________________________________________________________________\n======================================\nFound 3800 validated image filenames belonging to 12 classes.\nFound 950 validated image filenames belonging to 12 classes.\nE
…
