…
, average='macro'))","1a15b164":"### Visualize some training images","23f7a4bc":"### Separating labels and features (pixel)","12b6886f":"## Conclusion\nLets get connected on [Linkedin](https:\/\/www.linkedin.com\/in\/manzoor-bin-mahmood\/)\n\nVisit my [website](https:\/\/manzoormahmood.github.io\/) \n\n### Please **upvote** my work if you like it.","1da3c896":"### Loading dataset","48b64cfd":"### Changing to Tensor","3c270158":"### DataLoader for train and test \n* Batch size 16","ddda486f":"### Reshape features\n*Note: For images reshape will be in 4D*","08d023e9":"### Model\nNet(\n\n  (conv1): Conv2d(1, 32, kernel_size=(3, 3), stride=(1, 1))\n  \n  (conv2): Conv2d(32, 64, kernel_size=(3, 3), stride=(1, 1))\n  \n  (conv3): Conv2d(64, 128, kernel_size=(3, 3), stride=(1, 1))\n  \n  (fc1): Linear(in_features=128, out_features=512, bias=True)\n  \n  (fc2): Linear(in_features=512, out_features=26, bias=True)\n  \n)","10636256":"### Convert numpy data into tensor for PyTorch\n* torch.tensor default uses float\n* feature are divided by 255 to change them into suitable range","761bb5ac":"# What is PyTorch?\n* Its a machine learning library used for NLP, computer vision,etc.\n* Provides Tensor computing with GPU support.\n\n# Modules in Pytorch\n*  **Autograd m
…
MNIST**\n","8a9aa79a":"### DataLoader","3dc3c43a":"### Model important terms\n\n* nn.Linear : Applies a linear transformation (in_features, out_features)\n* nn.BatchNorm1d : By normalizing the inputs we are able to bring all the inputs features to the same scale\n* nn.functional.relu : Applies the rectified linear unit function element-wise\n* nn.functioncal.dropout : Dropout and offers a very computationally cheap and remarkably effective regularization method to reduce overfitting and improve generalization error in deep neural networks of all kinds.\n\n### **Model used**\n\nModel(\n\n  (fc1): Linear(in_features=784, out_features=548, bias=True)\n  \n  (bc1): BatchNorm1d(548, eps=1e-05, momentum=0.1, affine=True, track_running_stats=True)\n  \n  (fc2): Linear(in_features=548, out_features=252, bias=True)\n  \n  (bc2): BatchNorm1d(252, eps=1e-05, momentum=0.1, affine=True, track_running_stats=True)\n  \n  (fc3): Linear(in_features=252, out_features=10, bias=True)\n  \n)\n\n\n","634ab24e":"### Importing lib","64a2e6ed":"# Other use case to be covered in upcoming notebook\n\n* R-CNN\n* Sentiment Text Classification (Text Data, RNN)\n* Image Style Transfer (Transfer Learning)","cad0ef2b":"### Reshape features","bf5875ba":"### Importing dataset ","82fdf520":"### Predicting the output and accuracy","ce21e7b5":"### Se
…
